Model: "encoder"
_________________________________________________________________
Layer (type)                 Output Shape              Param #   
=================================================================
encoded_input (InputLayer)   (None, 3, 160, 168, 1)    0         
_________________________________________________________________
conv3d_13 (Conv3D)           (None, 1, 80, 84, 64)     1792      
_________________________________________________________________
conv3d_14 (Conv3D)           (None, 1, 40, 42, 64)     36928     
_________________________________________________________________
conv3d_15 (Conv3D)           (None, 1, 20, 21, 64)     36928     
_________________________________________________________________
conv3d_16 (Conv3D)           (None, 1, 10, 11, 64)     36928     
_________________________________________________________________
reshape_7 (Reshape)          (None, 7040)              0         
_________________________________________________________________
dense_layer (Dense)          (None, 128)               901248    
_________________________________________________________________
latent_space (Dense)         (None, 32)                4128      
=================================================================
Total params: 1,017,952
Trainable params: 1,017,952
Non-trainable params: 0
_________________________________________________________________
loss_history: {'val_loss': [… 'loss': [… loss_history: {'val_loss': [0.06869824796915054, 0.06367386823892593, 0.06190721708536148, 0.06134537321329117, 0.060273074090480806], 'loss': [
…
