Model: "encoder"
_________________________________________________________________
Layer (type)                 Output Shape              Param #   
=================================================================
encoded_input (InputLayer)   (None, 3, 160, 168, 1)    0         
_________________________________________________________________
conv3d_17 (Conv3D)           (None, 1, 80, 84, 64)     1792      
_________________________________________________________________
conv3d_18 (Conv3D)           (None, 1, 40, 42, 64)     36928     
_________________________________________________________________
conv3d_19 (Conv3D)           (None, 1, 20, 21, 64)     36928     
_________________________________________________________________
conv3d_20 (Conv3D)           (None, 1, 10, 11, 64)     36928     
_________________________________________________________________
reshape_9 (Reshape)          (None, 7040)              0         
_________________________________________________________________
dense_layer (Dense)          (None, 256)               1802496   
_________________________________________________________________
latent_space (Dense)         (None, 64)                16448     
=================================================================
Total params: 1,931,520
Trainable params: 1,931,520
Non-trainable params: 0
_________________________________________________________________
loss_history: {'val_loss': [… 'loss': [… loss_history: {'val_loss': [0.0651684485077858, 0.061914853632450105, 0.06020157903432846, 0.058894336760044096, 0.058565192699432375], 'loss': [
…
