…
conv3d_22 (Conv3D)              (None, 1, 40, 42, 64 36928       conv3d_21[0][0]                  
__________________________________________________________________________________________________
conv3d_23 (Conv3D)              (None, 1, 20, 21, 64 36928       conv3d_22[0][0]                  
__________________________________________________________________________________________________
conv3d_24 (Conv3D)              (None, 1, 10, 11, 64 36928       conv3d_23[0][0]                  
__________________________________________________________________________________________________
reshape_11 (Reshape)            (None, 7040)         0           conv3d_24[0][0]                  
__________________________________________________________________________________________________
dense_layer (Dense)             (None, 512)          3604992     reshape_11[0][0]                 
__________________________________________________________________________________________________
z_mean (Dense)                  (None, 512)          262656      dense_layer[0][0]                
__________________________________________________________________________________________________
z_log_var (Dense)               (None, 512)          262656      dense_layer[0][0]                
__________________________________________________________________________________________________
z (Lambda)                      (None, 512)          0           z_mean[0][0]                     
                                                                 z_log_var[0][0]                  
==================================================================================================
Total params: 4,242,880
Trainable params: 4,242,880
Non-trainable params: 0
__________________________________________________________________________________________________
Model: "decoder"
_________________________________________________________________
Layer (type)                 Output Shape              Param #   
=================================================================
decoded_input (InputLayer)   (None, 512)               0         
_________________________________________________________________
dense_6 (Dense)              (None, 7040)              3611520   
_________________________________________________________________
reshape_12 (Reshape)         (None, 1, 10, 11, 64)     0         
_________________________________________________________________
conv3d_transpose_26 (Conv3DT (None, 1, 20, 22, 64)     36928     
_________________________________________________________________
conv3d_transpose_27 (Conv3DT (None, 1, 40, 44, 64)     36928     
_________________________________________________________________
conv3d_transpose_28 (Conv3DT (None, 1, 80, 88, 64)     36928     
_________________________________________________________________
conv3d_transpose_29 (Conv3DT (None, 3, 160, 176, 64)   110656    
_________________________________________________________________
conv3d_transpose_30 (Conv3DT (None, 3, 160, 176, 1)    1729      
_________________________________________________________________
cropping3d_6 (Cropping3D)    (None, 3, 160, 168, 1)    0         
_________________________________________________________________
decoder_output (Activation)  (None, 3, 160, 168, 1)    0         
=================================================================
Total params: 3,834,689
Trainable params: 3,834,689
Non-trainable params: 0
_________________________________________________________________
Model: "vae"
_________________________________________________________________
Layer (type)                 Output Shape              Param #   
=================================================================
encoded_input (InputLayer)   (None, 3, 160, 168, 1)    0         
_________________________________________________________________
encoder (Model)              [(None, 512), (None, 512) 4242880   
_________________________________________________________________
decoder (Model)              (None, 3, 160, 168, 1)    3834689   
=================================================================
Total params: 8,077,569
Trainable params: 8,077,569
Non-trainable params: 0
_________________________________________________________________
loss_history: {'val_loss': [0.08278470933437347, 0.08118954503536224, 0.07930907791852951, 0.07762666356563568, 0.07665470546483993], 'loss': [0.09269351945817471, 0.08195313400030137, 0.0
…
