Model: "encoder"
__________________________________________________________________________________________________
Layer (type)                    Output Shape         Param #     Connected to                     
==================================================================================================
encoded_input (InputLayer)      (None, 160, 168, 1)  0                                            
__________________________________________________________________________________________________
conv2d_13 (Conv2D)              (None, 80, 84, 64)   640         encoded_input[0][0]              
__________________________________________________________________________________________________
conv2d_14 (Conv2D)              (None, 40, 42, 64)   36928       conv2d_13[0][0]                  
__________________________________________________________________________________________________
conv2d_15 (Conv2D)              (None, 20, 21, 64)   36928       conv2d_14[0][0]                  
__________________________________________________________________________________________________
conv2d_16 (Conv2D)              (None, 10, 11, 64)   36928       conv2d_15[0][0]                  
__________________________________________________________________________________________________
reshape_7 (Reshape)             (None, 7040)         0           conv2d_16[0][0]                  
__________________________________________________________________________________________________
dense_layer (Dense)             (None, 1024)         7209984     reshape_7[0][0]                  
__________________________________________________________________________________________________
z_mean (Dense)                  (None, 256)          262400      dense_layer[0][0]                
__________________________________________________________________________________________________
z_log_var (Dense)               (None, 256)          262400      dense_layer[0][0]                
__________________________________________________________________________________________________
z (Lambda)                      (None, 256)          0           z_mean[0][0]                     
                                                                 z_log_var[0][0]                  
==================================================================================================
Total params: 7,846,208
Trainable params: 7,846,208
Non-trainable params: 0
__________________________________________________________________________________________________
Model: "decoder"
_________________________________________________________________
Layer (type)                 Output Shape              Param #   
=================================================================
decoded_input (InputLayer)   (None, 256)               0         
_________________________________________________________________
dense_4 (Dense)              (None, 7040)              1809280   
_________________________________________________________________
reshape_8 (Reshape)          (None, 10, 11, 64)        0         
_________________________________________________________________
conv2d_transpose_16 (Conv2DT (None, 20, 22, 64)        36928     
_________________________________________________________________
conv2d_transpose_17 (Conv2DT (None, 40, 44, 64)        36928     
_________________________________________________________________
conv2d_transpose_18 (Conv2DT (None, 80, 88, 64)        36928     
_________________________________________________________________
conv2d_transpose_19 (Conv2DT (None, 160, 176, 64)      36928     
_________________________________________________________________
conv2d_transpose_20 (Conv2DT (None, 160, 176, 1)       577       
_________________________________________________________________
cropping2d_4 (Cropping2D)    (None, 160, 168, 1)       0         
_________________________________________________________________
decoder_output (Activation)  (None, 160, 168, 1)       0         
=================================================================
Total params: 1,957,569
Trainable params: 1,957,569
Non-trainable params: 0
_________________________________________________________________
Model: "vae"
_________________________________________________________________
Layer (type)                 Output Shape              Param #   
=================================================================
encoded_input (InputLayer)   (None, 160, 168, 1)       0         
_________________________________________________________________
encoder (Model)              [(None, 256), (None, 256) 7846208   
_________________________________________________________________
decoder (Model)              (None, 160, 168, 1)       1957569   
=================================================================
Total params: 9,803,777
Trainable params: 9,803,777
Non-trainable params: 0
_________________________________________________________________
loss_history: {'val_loss': [0.05659216493368149, 0.055384801725546516, 0.05477929568539063], 'loss': [0.06287013339810073, 0.05495354384804765, 0.0540053912717849]}