Model: "encoder"
_________________________________________________________________
Layer (type)                 Output Shape              Param #   
=================================================================
encoded_input (InputLayer)   (None, 3, 160, 168, 1)    0         
_________________________________________________________________
conv3d_9 (Conv3D)            (None, 1, 80, 84, 64)     1792      
_________________________________________________________________
conv3d_10 (Conv3D)           (None, 1, 40, 42, 64)     36928     
_________________________________________________________________
conv3d_11 (Conv3D)           (None, 1, 20, 21, 64)     36928     
_________________________________________________________________
conv3d_12 (Conv3D)           (None, 1, 10, 11, 64)     36928     
_________________________________________________________________
reshape_5 (Reshape)          (None, 7040)              0         
_________________________________________________________________
dense_layer (Dense)          (None, 256)               1802496   
_________________________________________________________________
latent_space (Dense)         (None, 128)               32896     
=================================================================
Total params: 1,947,968
Trainable params: 1,947,968
Non-trainable params: 0
_________________________________________________________________
loss_history: {'val_loss': [… 'loss': [… loss_history: {'val_loss': [0.06596710586547852, 0.06167424339056015, 0.060058527946472165, 0.05863640105724335, 0.05796790593862534], 'loss': [0
…
