Model: "encoder"
_________________________________________________________________
Layer (type)                 Output Shape              Param #   
=================================================================
encoded_input (InputLayer)   (None, 3, 160, 168, 1)    0         
_________________________________________________________________
conv3d_1 (Conv3D)            (None, 1, 80, 84, 64)     1792      
_________________________________________________________________
conv3d_2 (Conv3D)            (None, 1, 40, 42, 64)     36928     
_________________________________________________________________
conv3d_3 (Conv3D)            (None, 1, 20, 21, 64)     36928     
_________________________________________________________________
conv3d_4 (Conv3D)            (None, 1, 10, 11, 64)     36928     
_________________________________________________________________
reshape_1 (Reshape)          (None, 7040)              0         
_________________________________________________________________
dense_layer (Dense)          (None, 256)               1802496   
_________________________________________________________________
latent_space (Dense)         (None, 64)                16448     
=================================================================
Total params: 1,931,520
Trainable params: 1,931,520
Non-trainable params: 0
_________________________________________________________________
loss_history: {'val_loss': [… 'loss': [… loss_history: {'val_loss': [0.06343500423431396, 0.0597312821149826, 0.058504592895507815, 0.05768958121538162, 0.0565510465502739], 'loss': [0.0
…
