Model: "encoder"
_________________________________________________________________
Layer (type)                 Output Shape              Param #   
=================================================================
encoded_input (InputLayer)   (None, 3, 160, 168, 1)    0         
_________________________________________________________________
conv3d_9 (Conv3D)            (None, 1, 80, 84, 64)     1792      
_________________________________________________________________
conv3d_10 (Conv3D)           (None, 1, 40, 42, 64)     36928     
_________________________________________________________________
conv3d_11 (Conv3D)           (None, 1, 20, 21, 64)     36928     
_________________________________________________________________
conv3d_12 (Conv3D)           (None, 1, 10, 11, 64)     36928     
_________________________________________________________________
reshape_5 (Reshape)          (None, 7040)              0         
_________________________________________________________________
dense_layer (Dense)          (None, 256)               1802496   
_________________________________________________________________
latent_space (Dense)         (None, 64)                16448     
=================================================================
Total params: 1,931,520
Trainable params: 1,931,520
Non-trainable params: 0
_________________________________________________________________
loss_history: {'val_loss': [… 'loss': [… loss_history: {'val_loss': [0.057007233023643494, 0.05505002462863922, 0.05444242650270462, 0.05347087270021439, 0.05282227998971939], 'loss': [0
…
