Model: "encoder"
_________________________________________________________________
Layer (type)                 Output Shape              Param #   
=================================================================
encoded_input (InputLayer)   (None, 3, 160, 168, 1)    0         
_________________________________________________________________
conv3d_5 (Conv3D)            (None, 1, 80, 84, 64)     1792      
_________________________________________________________________
conv3d_6 (Conv3D)            (None, 1, 40, 42, 64)     36928     
_________________________________________________________________
conv3d_7 (Conv3D)            (None, 1, 20, 21, 64)     36928     
_________________________________________________________________
conv3d_8 (Conv3D)            (None, 1, 10, 11, 64)     36928     
_________________________________________________________________
reshape_3 (Reshape)          (None, 7040)              0         
_________________________________________________________________
dense_layer (Dense)          (None, 256)               1802496   
_________________________________________________________________
latent_space (Dense)         (None, 64)                16448     
=================================================================
Total params: 1,931,520
Trainable params: 1,931,520
Non-trainable params: 0
_________________________________________________________________
loss_history: {'val_loss': [… 'loss': [… loss_history: {'val_loss': [0.05898519629240036, 0.057177815198898314, 0.05668511360883713, 0.055188630759716036, 0.055139935851097104], 'loss': 
…
