Model: "encoder"
_________________________________________________________________
Layer (type)                 Output Shape              Param #   
=================================================================
encoded_input (InputLayer)   (None, 3, 160, 168, 1)    0         
_________________________________________________________________
conv3d_1 (Conv3D)            (None, 1, 80, 84, 64)     1792      
_________________________________________________________________
conv3d_2 (Conv3D)            (None, 1, 40, 42, 64)     36928     
_________________________________________________________________
conv3d_3 (Conv3D)            (None, 1, 20, 21, 64)     36928     
_________________________________________________________________
conv3d_4 (Conv3D)            (None, 1, 10, 11, 64)     36928     
_________________________________________________________________
reshape_1 (Reshape)          (None, 7040)              0         
_________________________________________________________________
dense_layer (Dense)          (None, 256)               1802496   
_________________________________________________________________
latent_space (Dense)         (None, 128)               32896     
=================================================================
Total params: 1,947,968
Trainable params: 1,947,968
Non-trainable params: 0
_________________________________________________________________
loss_history: {'val_loss': [… 'loss': [… loss_history: {'val_loss': [0.06461755746603012, 0.061693470060825345, 0.05954323488473892, 0.05821226352453232, 0.05667406553030014], 'loss': [0
…
