Model: "encoder"
_________________________________________________________________
Layer (type)                 Output Shape              Param #   
=================================================================
encoded_input (InputLayer)   (None, 3, 160, 168, 1)    0         
_________________________________________________________________
conv3d_69 (Conv3D)           (None, 1, 80, 84, 64)     1792      
_________________________________________________________________
conv3d_70 (Conv3D)           (None, 1, 40, 42, 64)     36928     
_________________________________________________________________
conv3d_71 (Conv3D)           (None, 1, 20, 21, 64)     36928     
_________________________________________________________________
conv3d_72 (Conv3D)           (None, 1, 10, 11, 64)     36928     
_________________________________________________________________
reshape_35 (Reshape)         (None, 7040)              0         
_________________________________________________________________
dense_layer (Dense)          (None, 1024)              7209984   
_________________________________________________________________
latent_space (Dense)         (None, 512)               524800    
=================================================================
Total params: 7,847,360
Trainable params: 7,847,360
Non-trainable params: 0
_________________________________________________________________
Model: "decoder"
_________________________________________________________________
Layer (type)                 Output Shape              Param #   
=================================================================
decoded_input (InputLayer)   (None, 512)               0         
_________________________________________________________________
dense_18 (Dense)             (None, 7040)              3611520   
_________________________________________________________________
reshape_36 (Reshape)         (None, 1, 10, 11, 64)     0         
_________________________________________________________________
conv3d_transpose_86 (Conv3DT (None, 1, 20, 22, 64)     36928     
_________________________________________________________________
conv3d_transpose_87 (Conv3DT (None, 1, 40, 44, 64)     36928     
_________________________________________________________________
conv3d_transpose_88 (Conv3DT (None, 1, 80, 88, 64)     36928     
_________________________________________________________________
conv3d_transpose_89 (Conv3DT (None, 3, 160, 176, 64)   110656    
_________________________________________________________________
conv3d_transpose_90 (Conv3DT (None, 3, 160, 176, 1)    1729      
_________________________________________________________________
cropping3d_18 (Cropping3D)   (None, 3, 160, 168, 1)    0         
_________________________________________________________________
decoder_output (Activation)  (None, 3, 160, 168, 1)    0         
=================================================================
Total params: 3,834,689
Trainable params: 3,834,689
Non-trainable params: 0
_________________________________________________________________
Model: "autoencoder"
_________________________________________________________________
Layer (type)                 Output Shape              Param #   
=================================================================
encoded_input (InputLayer)   (None, 3, 160, 168, 1)    0         
_________________________________________________________________
encoder (Model)              (None, 512)               7847360   
_________________________________________________________________
decoder (Model)              (None, 3, 160, 168, 1)    3834689   
=================================================================
Total params: 11,682,049
Trainable params: 11,682,049
Non-trainable params: 0
_________________________________________________________________
loss_history: {'val_loss': [0.08161762994527817, 0.07268948566913605, 0.06692491966485978, 0.062432290852069854, 0.06057222276926041], 'loss': [0.13252005609869957, 0.07291073100268841, 
…
