Model: "encoder"
_________________________________________________________________
Layer (type)                 Output Shape              Param #   
=================================================================
encoded_input (InputLayer)   (None, 3, 160, 168, 1)    0         
_________________________________________________________________
conv3d_13 (Conv3D)           (None, 1, 80, 84, 64)     1792      
_________________________________________________________________
conv3d_14 (Conv3D)           (None, 1, 40, 42, 64)     36928     
_________________________________________________________________
conv3d_15 (Conv3D)           (None, 1, 20, 21, 64)     36928     
_________________________________________________________________
conv3d_16 (Conv3D)           (None, 1, 10, 11, 64)     36928     
_________________________________________________________________
reshape_7 (Reshape)          (None, 7040)              0         
_________________________________________________________________
dense_layer (Dense)          (None, 256)               1802496   
_________________________________________________________________
latent_space (Dense)         (None, 128)               32896     
=================================================================
Total params: 1,947,968
Trainable params: 1,947,968
Non-trainable params: 0
_________________________________________________________________
loss_history: {'val_loss': [… 'loss': [… loss_history: {'val_loss': [0.05306813818216324, 0.05166957759857178, 0.05075398975610733, 0.04954931777715683, 0.04935727316141129], 'loss': [0.
…
