Model: "encoder"
_________________________________________________________________
Layer (type)                 Output Shape              Param #   
=================================================================
encoded_input (InputLayer)   (None, 3, 160, 168, 1)    0         
_________________________________________________________________
conv3d_13 (Conv3D)           (None, 1, 80, 84, 64)     1792      
_________________________________________________________________
conv3d_14 (Conv3D)           (None, 1, 40, 42, 64)     36928     
_________________________________________________________________
conv3d_15 (Conv3D)           (None, 1, 20, 21, 64)     36928     
_________________________________________________________________
conv3d_16 (Conv3D)           (None, 1, 10, 11, 64)     36928     
_________________________________________________________________
reshape_7 (Reshape)          (None, 7040)              0         
_________________________________________________________________
dense_layer (Dense)          (None, 256)               1802496   
_________________________________________________________________
latent_space (Dense)         (None, 64)                16448     
=================================================================
Total params: 1,931,520
Trainable params: 1,931,520
Non-trainable params: 0
_________________________________________________________________
loss_history: {'val_loss': [… 'loss': [… loss_history: {'val_loss': [0.056037404775619505, 0.05478831511735916, 0.053492555499076846, 0.05259226590394974, 0.05225255781412125], 'loss': [
…
