Model: "encoder"
_________________________________________________________________
Layer (type)                 Output Shape              Param #   
=================================================================
encoded_input (InputLayer)   (None, 3, 160, 168, 1)    0         
_________________________________________________________________
conv3d_9 (Conv3D)            (None, 1, 80, 84, 64)     1792      
_________________________________________________________________
conv3d_10 (Conv3D)           (None, 1, 40, 42, 64)     36928     
_________________________________________________________________
conv3d_11 (Conv3D)           (None, 1, 20, 21, 64)     36928     
_________________________________________________________________
conv3d_12 (Conv3D)           (None, 1, 10, 11, 64)     36928     
_________________________________________________________________
reshape_5 (Reshape)          (None, 7040)              0         
_________________________________________________________________
dense_layer (Dense)          (None, 128)               901248    
_________________________________________________________________
latent_space (Dense)         (None, 2)                 258       
=================================================================
Total params: 1,014,082
Trainable params: 1,014,082
Non-trainable params: 0
_________________________________________________________________
Model: "decoder"
_________________________________________________________________
Layer (type)                 Output Shape              Param #   
=================================================================
decoded_input (InputLayer)   (None, 2)                 0         
_________________________________________________________________
dense_3 (Dense)              (None, 7040)              21120     
_________________________________________________________________
reshape_6 (Reshape)          (None, 1, 10, 11, 64)     0         
_________________________________________________________________
conv3d_transpose_11 (Conv3DT (None, 1, 20, 22, 64)     36928     
_________________________________________________________________
conv3d_transpose_12 (Conv3DT (None, 1, 40, 44, 64)     36928     
_________________________________________________________________
conv3d_transpose_13 (Conv3DT (None, 1, 80, 88, 64)     36928     
_________________________________________________________________
conv3d_transpose_14 (Conv3DT (None, 3, 160, 176, 64)   110656    
_________________________________________________________________
conv3d_transpose_15 (Conv3DT (None, 3, 160, 176, 1)    1729      
_________________________________________________________________
cropping3d_3 (Cropping3D)    (None, 3, 160, 168, 1)    0         
_________________________________________________________________
decoder_output (Activation)  (None, 3, 160, 168, 1)    0         
=================================================================
Total params: 244,289
Trainable params: 244,289
Non-trainable params: 0
_________________________________________________________________
Model: "autoencoder"
_________________________________________________________________
Layer (type)                 Output Shape              Param #   
=================================================================
encoded_input (InputLayer)   (None, 3, 160, 168, 1)    0         
_________________________________________________________________
encoder (Model)              (None, 2)                 1014082   
_________________________________________________________________
decoder (Model)              (None, 3, 160, 168, 1)    244289    
=================================================================
Total params: 1,258,371
Trainable params: 1,258,371
Non-trainable params: 0
_________________________________________________________________
loss_history: {'val_loss': [… 'loss': [… 