Model: "encoder"
_________________________________________________________________
Layer (type)                 Output Shape              Param #   
=================================================================
encoded_input (InputLayer)   (None, 3, 160, 168, 1)    0         
_________________________________________________________________
conv3d_73 (Conv3D)           (None, 1, 80, 84, 64)     1792      
_________________________________________________________________
conv3d_74 (Conv3D)           (None, 1, 40, 42, 64)     36928     
_________________________________________________________________
conv3d_75 (Conv3D)           (None, 1, 20, 21, 64)     36928     
_________________________________________________________________
conv3d_76 (Conv3D)           (None, 1, 10, 11, 64)     36928     
_________________________________________________________________
reshape_37 (Reshape)         (None, 7040)              0         
_________________________________________________________________
dense_layer (Dense)          (None, 512)               3604992   
_________________________________________________________________
latent_space (Dense)         (None, 256)               131328    
=================================================================
Total params: 3,848,896
Trainable params: 3,848,896
Non-trainable params: 0
_________________________________________________________________
Model: "decoder"
_________________________________________________________________
Layer (type)                 Output Shape              Param #   
=================================================================
decoded_input (InputLayer)   (None, 256)               0         
_________________________________________________________________
dense_19 (Dense)             (None, 7040)              1809280   
_________________________________________________________________
reshape_38 (Reshape)         (None, 1, 10, 11, 64)     0         
_________________________________________________________________
conv3d_transpose_91 (Conv3DT (None, 1, 20, 22, 64)     36928     
_________________________________________________________________
conv3d_transpose_92 (Conv3DT (None, 1, 40, 44, 64)     36928     
_________________________________________________________________
conv3d_transpose_93 (Conv3DT (None, 1, 80, 88, 64)     36928     
_________________________________________________________________
conv3d_transpose_94 (Conv3DT (None, 3, 160, 176, 64)   110656    
_________________________________________________________________
conv3d_transpose_95 (Conv3DT (None, 3, 160, 176, 1)    1729      
_________________________________________________________________
cropping3d_19 (Cropping3D)   (None, 3, 160, 168, 1)    0         
_________________________________________________________________
decoder_output (Activation)  (None, 3, 160, 168, 1)    0         
=================================================================
Total params: 2,032,449
Trainable params: 2,032,449
Non-trainable params: 0
_________________________________________________________________
Model: "autoencoder"
_________________________________________________________________
Layer (type)                 Output Shape              Param #   
=================================================================
encoded_input (InputLayer)   (None, 3, 160, 168, 1)    0         
_________________________________________________________________
encoder (Model)              (None, 256)               3848896   
_________________________________________________________________
decoder (Model)              (None, 3, 160, 168, 1)    2032449   
=================================================================
Total params: 5,881,345
Trainable params: 5,881,345
Non-trainable params: 0
_________________________________________________________________
loss_history: {'val_loss': [0.05725001615285873, 0.055071738779544833, 0.05414622169733047, 0.0533918114900589, 0.05260489100217819], 'loss': [0.061274498082697394, 0.05246215735375881, 0.
…
