Model: "encoder"
_________________________________________________________________
Layer (type)                 Output Shape              Param #   
=================================================================
encoded_input (InputLayer)   (None, 3, 160, 168, 1)    0         
_________________________________________________________________
conv3d_61 (Conv3D)           (None, 1, 80, 84, 64)     1792      
_________________________________________________________________
conv3d_62 (Conv3D)           (None, 1, 40, 42, 64)     36928     
_________________________________________________________________
conv3d_63 (Conv3D)           (None, 1, 20, 21, 64)     36928     
_________________________________________________________________
conv3d_64 (Conv3D)           (None, 1, 10, 11, 64)     36928     
_________________________________________________________________
reshape_31 (Reshape)         (None, 7040)              0         
_________________________________________________________________
dense_layer (Dense)          (None, 1024)              7209984   
_________________________________________________________________
latent_space (Dense)         (None, 512)               524800    
=================================================================
Total params: 7,847,360
Trainable params: 7,847,360
Non-trainable params: 0
_________________________________________________________________
Model: "decoder"
_________________________________________________________________
Layer (type)                 Output Shape              Param #   
=================================================================
decoded_input (InputLayer)   (None, 512)               0         
_________________________________________________________________
dense_16 (Dense)             (None, 7040)              3611520   
_________________________________________________________________
reshape_32 (Reshape)         (None, 1, 10, 11, 64)     0         
_________________________________________________________________
conv3d_transpose_76 (Conv3DT (None, 1, 20, 22, 64)     36928     
_________________________________________________________________
conv3d_transpose_77 (Conv3DT (None, 1, 40, 44, 64)     36928     
_________________________________________________________________
conv3d_transpose_78 (Conv3DT (None, 1, 80, 88, 64)     36928     
_________________________________________________________________
conv3d_transpose_79 (Conv3DT (None, 3, 160, 176, 64)   110656    
_________________________________________________________________
conv3d_transpose_80 (Conv3DT (None, 3, 160, 176, 1)    1729      
_________________________________________________________________
cropping3d_16 (Cropping3D)   (None, 3, 160, 168, 1)    0         
_________________________________________________________________
decoder_output (Activation)  (None, 3, 160, 168, 1)    0         
=================================================================
Total params: 3,834,689
Trainable params: 3,834,689
Non-trainable params: 0
_________________________________________________________________
Model: "autoencoder"
_________________________________________________________________
Layer (type)                 Output Shape              Param #   
=================================================================
encoded_input (InputLayer)   (None, 3, 160, 168, 1)    0         
_________________________________________________________________
encoder (Model)              (None, 512)               7847360   
_________________________________________________________________
decoder (Model)              (None, 3, 160, 168, 1)    3834689   
=================================================================
Total params: 11,682,049
Trainable params: 11,682,049
Non-trainable params: 0
_________________________________________________________________
loss_history: {'val_loss': [0.07860097706317902, 0.07182437551021575, 0.06577622330188751, 0.062162788987159726, 0.06019573873281479], 'loss': [0.12975518928468227, 0.070596027135849, 0.
…
