Model: "encoder"
_________________________________________________________________
Layer (type)                 Output Shape              Param #   
=================================================================
encoded_input (InputLayer)   (None, 3, 160, 168, 1)    0         
_________________________________________________________________
conv3d_13 (Conv3D)           (None, 1, 80, 84, 64)     1792      
_________________________________________________________________
conv3d_14 (Conv3D)           (None, 1, 40, 42, 64)     36928     
_________________________________________________________________
conv3d_15 (Conv3D)           (None, 1, 20, 21, 64)     36928     
_________________________________________________________________
conv3d_16 (Conv3D)           (None, 1, 10, 11, 64)     36928     
_________________________________________________________________
reshape_7 (Reshape)          (None, 7040)              0         
_________________________________________________________________
dense_layer (Dense)          (None, 512)               3604992   
_________________________________________________________________
latent_space (Dense)         (None, 256)               131328    
=================================================================
Total params: 3,848,896
Trainable params: 3,848,896
Non-trainable params: 0
_________________________________________________________________
Model: "decoder"
_________________________________________________________________
Layer (type)                 Output Shape              Param #   
=================================================================
decoded_input (InputLayer)   (None, 256)               0         
_________________________________________________________________
dense_4 (Dense)              (None, 7040)              1809280   
_________________________________________________________________
reshape_8 (Reshape)          (None, 1, 10, 11, 64)     0         
_________________________________________________________________
conv3d_transpose_16 (Conv3DT (None, 1, 20, 22, 64)     36928     
_________________________________________________________________
conv3d_transpose_17 (Conv3DT (None, 1, 40, 44, 64)     36928     
_________________________________________________________________
conv3d_transpose_18 (Conv3DT (None, 1, 80, 88, 64)     36928     
_________________________________________________________________
conv3d_transpose_19 (Conv3DT (None, 3, 160, 176, 64)   110656    
_________________________________________________________________
conv3d_transpose_20 (Conv3DT (None, 3, 160, 176, 1)    1729      
_________________________________________________________________
cropping3d_4 (Cropping3D)    (None, 3, 160, 168, 1)    0         
_________________________________________________________________
decoder_output (Activation)  (None, 3, 160, 168, 1)    0         
=================================================================
Total params: 2,032,449
Trainable params: 2,032,449
Non-trainable params: 0
_________________________________________________________________
Model: "autoencoder"
_________________________________________________________________
Layer (type)                 Output Shape              Param #   
=================================================================
encoded_input (InputLayer)   (None, 3, 160, 168, 1)    0         
_________________________________________________________________
encoder (Model)              (None, 256)               3848896   
_________________________________________________________________
decoder (Model)              (None, 3, 160, 168, 1)    2032449   
=================================================================
Total params: 5,881,345
Trainable params: 5,881,345
Non-trainable params: 0
_________________________________________________________________
loss_history: {'val_loss': [0.06998648059368133, 0.06587749993801117, 0.0633327460885048, 0.06116370570659638, 0.059126500248908996], 'loss': [0.09777035664021969, 0.06423427282273769, 0.0
…
