Model: "encoder"
_________________________________________________________________
Layer (type)                 Output Shape              Param #   
=================================================================
encoded_input (InputLayer)   (None, 3, 160, 168, 1)    0         
_________________________________________________________________
conv3d_9 (Conv3D)            (None, 1, 80, 84, 64)     1792      
_________________________________________________________________
conv3d_10 (Conv3D)           (None, 1, 40, 42, 64)     36928     
_________________________________________________________________
conv3d_11 (Conv3D)           (None, 1, 20, 21, 64)     36928     
_________________________________________________________________
conv3d_12 (Conv3D)           (None, 1, 10, 11, 64)     36928     
_________________________________________________________________
reshape_5 (Reshape)          (None, 7040)              0         
_________________________________________________________________
dense_layer (Dense)          (None, 128)               901248    
_________________________________________________________________
latent_space (Dense)         (None, 32)                4128      
=================================================================
Total params: 1,017,952
Trainable params: 1,017,952
Non-trainable params: 0
_________________________________________________________________
loss_history: {'val_loss': [… 'loss': [… loss_history: {'val_loss': [0.06764560043811799, 0.06395428681373597, 0.06292395007610321, 0.06111741638183594, 0.06007424932718277], 'loss': [0
…
