Model: "encoder"
_________________________________________________________________
Layer (type)                 Output Shape              Param #   
=================================================================
encoded_input (InputLayer)   (None, 3, 160, 168, 1)    0         
_________________________________________________________________
conv3d_17 (Conv3D)           (None, 1, 80, 84, 64)     1792      
_________________________________________________________________
conv3d_18 (Conv3D)           (None, 1, 40, 42, 64)     36928     
_________________________________________________________________
conv3d_19 (Conv3D)           (None, 1, 20, 21, 64)     36928     
_________________________________________________________________
conv3d_20 (Conv3D)           (None, 1, 10, 11, 64)     36928     
_________________________________________________________________
reshape_9 (Reshape)          (None, 7040)              0         
_________________________________________________________________
dense_layer (Dense)          (None, 128)               901248    
_________________________________________________________________
latent_space (Dense)         (None, 32)                4128      
=================================================================
Total params: 1,017,952
Trainable params: 1,017,952
Non-trainable params: 0
_________________________________________________________________
loss_history: {'val_loss': [… 'loss': [… loss_history: {'val_loss': [0.06362970858812332, 0.061395087897777555, 0.06101422828435898, 0.059090584754943845, 0.058583573400974275], 'loss':
…
