Model: "encoder"
_________________________________________________________________
Layer (type)                 Output Shape              Param #   
=================================================================
encoded_input (InputLayer)   (None, 3, 160, 168, 1)    0         
_________________________________________________________________
conv3d_5 (Conv3D)            (None, 1, 80, 84, 64)     1792      
_________________________________________________________________
conv3d_6 (Conv3D)            (None, 1, 40, 42, 64)     36928     
_________________________________________________________________
conv3d_7 (Conv3D)            (None, 1, 20, 21, 64)     36928     
_________________________________________________________________
conv3d_8 (Conv3D)            (None, 1, 10, 11, 64)     36928     
_________________________________________________________________
reshape_3 (Reshape)          (None, 7040)              0         
_________________________________________________________________
dense_layer (Dense)          (None, 128)               901248    
_________________________________________________________________
latent_space (Dense)         (None, 32)                4128      
=================================================================
Total params: 1,017,952
Trainable params: 1,017,952
Non-trainable params: 0
_________________________________________________________________
loss_history: {'val_loss': [… 'loss': [… loss_history: {'val_loss': [0.0683088189959526, 0.06542294526100159, 0.06472363913059234, 0.06306314128637314, 0.062474676072597504], 'loss': [0
…
